…
ocalhost:8080/"},"id":"wwbw49L2Q5Jz","executionInfo":{"status":"ok","timestamp":1691147875307,"user_tz":-330,"elapsed":408,"user":{"displayName":"Garigapati haneesha","userId":"06208577636326759322"}},"outputId":"815cda8b-4528-40b9-ecbd-6a76bce3a012"},"execution_count":null,"outputs":[{"output_type":"stream","name":"stdout","text":["Model: \"sequential\"\n","_________________________________________________________________\n"," Layer (type)                Output Shape              Param #   \n","=================================================================\n"," conv2d (Conv2D)             (None, 30, 30, 32)        896       \n","                                                                 \n"," max_pooling2d (MaxPooling2D  (None, 15, 15, 32)       0         \n"," )                                                               \n","                                                                 \n"," conv2d_1 (Conv2D)           (None, 13, 13, 64)        18496     \n","                                                                 \n"," max_pooling2d_1 (MaxPooling  (None, 6, 6, 64)         0         \n"," 2D)                                                             \n","                                                                 \n"," conv2d_2 (Conv2D)           (None, 4, 4, 64)          36928     \n","                                                                 \n","=================================================================\n","Total params: 56,320\n","Trainable params: 56,320\n","Non-trainable params: 0\n","_________________________________________________________________\n","Model: \"sequential\"\n","_________________________________________________________________\n"," Layer (type)                Output Shape              Param #   \n","=================================================================\n"," conv2d (Conv2D)             (None, 30, 30, 32)        896       \n","                                                                 \n"," max_pooling2d (MaxPooling2D  (None, 15, 15, 32)       0         \n"," )                                                               \n","                                                                 \n"," conv2d_1 (Conv2D)           (None, 13, 13, 64)        18496     \n","                                                                 \n"," max_pooling2d_1 (MaxPooling  (None, 6, 6, 64)         0         \n"," 2D)                                                             \n","                                                                 \n"," conv2d_2 (Conv2D)           (None, 4, 4, 64)          36928     \n","                                                                 \n"," flatten (Flatten)           (None, 1024)              0         \n","                                                                 \n"," dense (Dense)               (None, 64)                65600     \n","                                                                 \n"," dense_1 (Dense)             (None, 10)                650       \n","                                                                 \n","=================================================================\n","Total params: 122,570\n","Trainable params: 122,570\n","Non-trainable params: 0\n","_________________________________________________________________\n"]}]},{"cell_type":"code","source":["history = model.fit(train_images, train_labels, epochs=5,\n"
…
